src/prediction_model/trainedModels_nn.tflite (tflite, 36552 bytes, 20 tensors)

Bumper/dense_14/BiasAdd/ReadVariableOp f4 [22]
000000 2e a5 46 3d 7c 52 bc 3b 8f e4 dc 3d 17 1c 7c bd
       0.04849737 0.0057471376 0.107857816 -0.061550226
000010 2a 54 09 3d 89 b2 02 be 7e 4c 62 bd 3c 96 3a 3d
       0.03352753 -0.12763418 -0.05524873 0.04555343
000020 0c c1 57 3d e6 6f 0f be 70 5d 8f 3d 1f 9e a8 3c
       0.05267434 -0.1400753 0.07000244 0.02058321
000030 9b 27 89 be dd ae 59 bb a7 b1 8b 3d e4 4f 99 bc
       -0.2678803 -0.00332158 0.06820994 -0.018714853
000040 d2 0b 2e be 57 e0 45 3e f9 d8 96 3d a0 72 2a 3e
       -0.16996697 0.1932386 0.07365603 0.16645288
000050 83 28 2f 3d 31 fc 09 be
       0.042763244 -0.1347511

Bumper/dense_15/BiasAdd/ReadVariableOp f4 [18]
000000 6f ea 21 3e 0b 83 3a 3e 5e 7b d7 3c 73 32 cd 3d
       0.15812086 0.18214051 0.026303943 0.10019388
000010 6e 19 21 3e 58 e3 a2 3e af 8f 66 bd 17 a3 85 3f
       0.15732357 0.31814075 -0.05628937 1.0440396
000020 d6 7c 7e 3e 04 cc a6 bd 99 fc d1 3b ee e8 0a 3c
       0.24852309 -0.08144382 0.006408286 0.008478386
000030 e7 3e d9 bd 69 08 d2 3d 72 a6 a6 3c 57 d1 28 3e
       -0.10607701 0.1025551 0.02034304 0.16486107
000040 e7 15 48 3e 57 b3 12 3e
       0.19539605 0.14326225

Bumper/dense_16/BiasAdd/ReadVariableOp f4 [24]
000000 e3 7b 11 3f fd 01 29 bc 6c cf fc 3e a4 c7 15 3f
       0.5682966 -0.010315415 0.49377 0.5850775
000010 34 4a 65 bb 00 00 00 00 cc d8 19 3f 75 27 c0 3e
       -0.0034986855 0.0 0.6009643 0.37530103
000020 00 00 00 00 78 e9 d7 3e 86 5a 00 3f 93 26 7e bd
       0.0 0.4217031 0.5013813 -0.062048506
000030 c9 2d 03 3f a6 9b fc 3e 50 68 05 3f b3 0a 03 3f
       0.5124174 0.493375 0.52112293 0.511882
000040 db b3 f5 3e 72 16 0a 3f 71 a9 fc 3e 3f 2b 18 3f
       0.4798878 0.539405 0.49348024 0.5944099
000050 00 00 00 00 9b cf 06 3f aa 1f e2 3e 0b 02 05 3f
       0.0 0.5266053 0.44164783 0.5195624

Bumper/dense_17/BiasAdd/ReadVariableOp f4 [26]
000000 e3 31 59 bf d9 c7 d6 be 62 ea a8 be bb 4f 12 bf
       -0.84841746 -0.41949347 -0.3299132 -0.5715291
000010 f5 9e 82 3f 5b 36 3a bf 07 b4 4f bf ab c2 87 3f
       1.020476 -0.7273919 -0.81134075 1.0606283
000020 51 44 15 3f a0 27 6c bf a0 fd 0e bf 2d df 4e bf
       0.5830737 -0.9224796 -0.5585575 -0.8080929
000030 6b a1 2f bf 5d 68 72 3f 54 11 1d bf 29 21 21 bf
       -0.6860568 0.94690496 -0.61354566 -0.62941223
000040 82 e2 34 3f f1 25 6e bf a2 2c 4a 3f c2 ba 30 bf
       0.70658123 -0.93026644 0.78974354 -0.6903497
000050 55 a7 1b bf 30 17 0f 3f 30 e6 28 bf 5a 5c 3f bf
       -0.60802203 0.55894756 -0.6597624 -0.7475029
000060 f6 fc 12 bf fd 92 3b 3f
       -0.5741724 0.7327116

Bumper/dense_18/BiasAdd/ReadVariableOp f4 [24]
000000 10 57 8b be 5b 59 db 3e 44 1e 85 be 82 20 4c 3f
       -0.2721486 0.4284161 -0.25999653 0.79737103
000010 99 62 8c 3e 18 c1 c9 3e 28 ef 36 be 5f 4d 70 3e
       0.27418974 0.3940513 -0.17864668 0.23467015
000020 dd 64 c5 be 99 4d 86 bf 07 17 6e 3e e9 8b 0c bf
       -0.38553515 -1.0492431 0.23250972 -0.54900986
000030 33 4d e2 3e ee 60 39 3e b7 ae a7 3e 87 8a 57 bf
       0.44199523 0.18103382 0.32750484 -0.8419575
000040 1f c2 b5 3e 75 2b 8a 3e 7c de 35 3e 2d 33 80 bf
       0.35499665 0.2698628 0.17760652 -1.0015618
000050 db fc 82 3e 49 59 98 be 31 de b7 be 6c 6f f0 be
       0.25583538 -0.2975562 -0.35911706 -0.46960008

Bumper/dense_19/BiasAdd/ReadVariableOp f4 [16]
000000 48 67 9c 3e 36 96 c2 3e d8 1c 68 3d cf 68 8e 3d
       0.30547547 0.38005227 0.056668133 0.069535844
000010 f3 59 35 3e 66 81 98 bc 0c 1b f0 bc 83 ec 4c 3e
       0.17710094 -0.01861639 -0.029309772 0.20012097
000020 b6 bf ef bd 36 45 20 be a6 df 19 3d c8 06 f0 3d
       -0.11706488 -0.15651402 0.037566803 0.117200434
000030 c9 69 61 bd 68 39 0d bf 0a 8b 3d bd 96 90 4f be
       -0.055032525 -0.5516572 -0.046275176 -0.20269999

Bumper/dense_20/BiasAdd/ReadVariableOp f4 [16]
000000 1c 59 01 3d 46 58 cd 3d c6 66 32 3d 4c 74 7b be
       0.031579122 0.100266024 0.043555044 -0.24556082
000010 65 15 81 be 0b 79 af 3e ed f4 81 3d e7 26 8d bd
       -0.25211635 0.34272036 0.06345544 -0.06892186
000020 91 62 0b bd db 19 5a 3d 56 6b be 3d c2 a1 c1 3d
       -0.034029547 0.053247314 0.092978165 0.09454681
000030 ea 29 3f 3e db 08 57 3e c7 bc 53 3e ff 8d 59 bd
       0.18668333 0.20999472 0.20677482 -0.053113934

Func/Bumper/lstm_2/StatefulPartitionedCall/input/_6 f4 [48]
000000 e0 cc 54 be 8f 71 1f 3e d7 7c b0 3d 00 70 47 bf
       -0.20781279 0.15570663 0.08617561 -0.77905273
000010 67 02 9f bf 0c 94 ad 3e fc 0d 8c 3d ec eb de bd
       -1.2422608 0.33902013 0.06838605 -0.10884842
000020 e0 16 b0 be c2 22 8d be 58 cc a1 3e 5b a4 97 3e
       -0.34392452 -0.2756558 0.31601214 0.2961758
000030 c6 df 62 3f d1 b7 a4 3f dd e0 72 3f cc 4c 34 3e
       0.886227 1.2868596 0.94874364 0.1760742
000040 78 4e d8 3d 64 54 d9 3f 77 54 25 3f 30 17 52 3f
       0.10561842 1.6978879 0.6458201 0.8206663
000050 3f be 61 3f 5b ff 97 3f 20 0e 86 3f d0 5a 6d 3f
       0.8818092 1.1874803 1.0473061 0.92716694
000060 5c 2a 5d 3e 47 4e 92 be ab 2d cc 3e 6a 03 b5 bd
       0.2159819 -0.28575346 0.39878592 -0.08838542
000070 61 a7 b4 bd 03 e7 eb bd 27 f6 0f 3e 8c 50 e1 3d
       -0.088209875 -0.11518671 0.14058743 0.11001691
000080 99 2b b1 3e 9c b4 ec 3e 4e 34 e5 be 71 3b ad 3e
       0.34603575 0.46231544 -0.44766468 0.33834413
000090 18 a6 9c 3d d8 a6 83 3f b4 bf 9c 3e 95 24 80 bf
       0.07648867 1.0285292 0.30615008 -1.0011164
0000a0 3f cb c4 bd d8 b8 db 3e 62 70 06 be b4 5f e0 3e
       -0.096090786 0.42914462 -0.13128808 0.43823016
0000b0 96 3d 45 be 88 36 84 3e 14 50 39 bd 8a e5 a8 3e
       -0.19261774 0.25822854 -0.045242384 0.32987624

MatMul_1 f4 [48, 12]
000000 d9 1d 26 40 ae cb 99 3e eb 9c 21 be 73 c6 87 bf
       2.5955718 0.30038208 -0.15782516 -1.0607437
000010 69 d9 8e bf 0d 24 5e bf 6a 01 32 3e ca bd a1 be
       -1.1160098 -0.8677376 0.17383352 -0.3159011
000020 2a c4 ef 3f a8 7d b0 bd 4a c5 b4 be 82 3e a9 be
       1.873174 -0.08617717 -0.3530677 -0.33055502
000030 34 02 98 bf 7f 25 ce be 9d 20 14 3f 90 d4 78 3f
       -1.1875672 -0.40262982 0.57862264 0.97199345
000040 57 07 72 be 9d 03 8e c0 7e f3 a1 bf d0 04 13 c0
       -0.23635612 -4.437941 -1.2652433 -2.2971687
000050 11 ef 6e 3e 23 2e 04 40 45 7b c6 be 83 06 cc be
       0.23333384 2.065316 -0.38765922 -0.39848718
000060 5a 25 5d 3f b1 96 22 be b1 e1 0f be 9a 86 6e 3e
       0.8638512 -0.15877797 -0.14050938 0.23293534
000070 34 88 69 bc 7e 05 ae be f4 bf 82 3f 47 d4 b1 3b
       -0.014253665 -0.33988565 1.021483 0.0054269168
000080 66 72 03 bf 7c 56 ff 3e d4 af e7 bd 5e d9 04 3d
       -0.51346433 0.4987067 -0.113128334 0.03243386
000090 9e aa 56 3f 0a 93 ec bf 97 ef 8d 3f 22 4b db 3e
       0.8385409 -1.8482373 1.1088742 0.4283076
0000a0 4b f0 ce 3f 20 f0 52 3e 32 1f c2 3f b5 99 b3 be
       1.6167082 0.20599413 1.516577 -0.35078207
0000b0 27 15 38 c0 5d 14 4b 40 9a 85 3b be 79 15 aa be
       -2.876291 3.1731179 -0.18312684 -0.33219507
0000c0 6b 9f 02 3f 15 c0 eb be 3d fc fb be ee b0 d9 3f
       0.510245 -0.46044984 -0.4921588 1.700712
0000d0 67 f0 cf bd 28 4a f7 3f ab 3f fd be b1 e3 03 bf
       -0.10153275 1.9319506 -0.49462637 -0.51519305
0000e0 d4 02 3f 3e 17 13 a0 bf af a9 ed 3d b0 be c0 3f
       0.18653423 -1.2505826 0.1160463 1.5058193
0000f0 dd c0 d5 3f 1b ec b7 be 7b 51 64 bf 3f 82 6b c0
       1.6699482 -0.35922322 -0.8918683 -3.6798246
000100 31 23 ed 3e be bd a1 3e bd ca 01 c0 23 a2 05 3f
       0.4631591 0.31590074 -2.0279992 0.52200526
000110 92 e9 c2 3e 86 ed 89 bf 63 99 45 3f d7 86 97 3e
       0.38068825 -1.0775611 0.77187175 0.29595062
000120 de 42 92 bb 0a 43 fa be dd 51 5b bf 92 0c 86 bf
       -0.0044635376 -0.48879272 -0.8567179 -1.0472586
000130 c0 ea 30 3f 05 02 32 3f 66 ab 16 bf 7d d1 70 be
       0.691082 0.6953433 -0.58855283 -0.23517413
000140 fa 9a bd be 76 f6 80 3e 67 d9 fd 3e f8 18 41 be
       -0.370323 0.25188035 0.49579927 -0.18857181
000150 26 c4 a6 bc ef af bf 3e 45 9c d7 be c4 91 13 3e
       -0.020357203 0.37438914 -0.42111412 0.14411074
000160 a2 46 75 3e da 95 04 3f 9a bd 36 3f f5 8a d3 be
       0.23952726 0.51791155 0.7138306 -0.41316953
000170 ee 22 e1 bf ba d1 31 3f 70 55 aa be ff 65 aa 3c
       -1.7588785 0.6946064 -0.3326831 0.020800589
000180 da e2 48 40 34 b9 05 3d 76 74 b1 bf 43 21 28 bf
       3.138846 0.032647327 -1.3863666 -0.65675753
000190 c6 f9 0c c0 68 69 48 3f 17 21 60 bf 19 8e 0b be
       -2.202745 0.7828584 -0.8755049 -0.13628425
0001a0 a3 88 3d 3f 60 63 29 3f d5 ed 8f bf f5 32 8e 3e
       0.74036616 0.6616726 -1.1244456 0.27773252
0001b0 29 85 69 3f fa 29 d0 3f ff de 5e 3f 36 9f e0 bf
       0.9121881 1.626281 0.87059015 -1.7548587
0001c0 0e f2 2d 3f ae b2 7d c0 ba ea c9 3f e2 9b 83 be
       0.6794747 -3.9640307 1.5774758 -0.25704867
0001d0 3e bc 5b 3f 57 fd 6f 3f b4 25 a5 bf 19 03 9e 3e
       0.8583411 0.9374594 -1.2902131 0.30861738
0001e0 f6 ab 91 bf a5 18 b3 be db de 17 bc 7c fe bf 3e
       -1.1380603 -0.3497974 -0.0092694415 0.37498844
0001f0 69 57 e5 bd 03 66 25 3d 44 d5 f8 3d 8c d3 1a bf
       -0.11198313 0.04038049 0.12150052 -0.60479045
000200 1f f5 94 3e 87 3e ef 3e b0 43 2a 3f 36 7d 2a bf
       0.29093263 0.46727392 0.6650953 -0.66597307
000210 e9 95 89 be 9c 7b db 3e 10 1c aa 3e 91 99 4d 3e
       -0.26872185 0.42867744 0.33224535 0.20078112
000220 24 31 9d 3f 01 0c 21 3f c6 cc 49 3f eb c4 16 bf
       1.2280622 0.6290894 0.78828084 -0.5889422
000230 c8 9b 8a bf df 41 f9 3e 66 10 98 be dd bf 5a 3f
       -1.0828791 0.48683068 -0.2970001 0.8544901
000240 0f 69 59 bc 0b e1 e5 3e ef 27 09 bf 3c bb 69 3d
       -0.013269677 0.44898257 -0.5357656 0.057063326
000250 d9 dc 06 3e 06 97 c8 3d d3 20 b3 bf fe 78 cb bd
       0.13170184 0.097944304 -1.3994392 -0.09935187
000260 e6 5e 57 bf 37 7c 75 be 43 9f 69 be 57 6e 05 be
       -0.8412918 -0.23973165 -0.2281466 -0.13030373
000270 a2 7d 69 be 29 b2 fa 3d 66 34 52 3f 58 f2 4d bf
       -0.22801831 0.122410126 0.82111204 -0.8044791
000280 5f 8f 92 3d 31 74 71 bf af 70 5b bf 98 af 68 3c
       0.07156252 -0.9431792 -0.85718817 0.014202021
000290 ed 6f 10 bf 57 0f 58 be a9 ba fe be 78 c0 10 bc
       -0.56420785 -0.21099602 -0.49751785 -0.008834951
0002a0 c8 b8 da bf 84 3c 18 be 67 fe e7 3e 26 e7 00 40
       -1.7087641 -0.14866835 0.4531128 2.0141082
0002b0 e1 0f 74 bd 8b 3c 8b bc de c7 0d bf e1 a1 c0 bf
       -0.059585456 -0.016996643 -0.553831 -1.5049402
0002c0 46 b0 5b 3e 72 5e 01 3c 33 3e 22 be 87 65 2b bc
       0.21453962 0.007896053 -0.1584404 -0.010461218
0002d0 69 e9 64 bf d7 eb fd bf ee 25 b8 3f d4 8a 4e bf
       -0.89418656 -1.9837598 1.4386575 -0.80680585
0002e0 89 0f a1 3f 41 ff e9 3f 78 24 25 3e 02 ec cb be
       1.2582866 1.8281022 0.16127193 -0.39828497
0002f0 da 17 23 3f ca a3 31 3f 81 3b 8d 3f 5f 8a 69 be
       0.6370827 0.6939055 1.1033784 -0.2280669
000300 b5 19 bb bf 5d 5c b9 be 04 ac c2 3e cc 5b 3d 40
       -1.461722 -0.3620328 0.38021863 2.9587278
000310 9f 7b 6e be b8 42 c5 3f 0a 8b aa bf de ab 6f 3e
       -0.23289345 1.5410986 -1.3323681 0.23405406
000320 d6 23 f5 3e 6a 36 b5 be 60 00 29 3f 49 f8 36 3f
       0.47878903 -0.35393077 0.660162 0.71472603
000330 b8 b5 7d 3f 0e f1 53 3f 63 70 4f 3e 64 0d ad bf
       0.99105406 0.82789695 0.20257716 -1.3519711
000340 5f 97 ee 3e 6f 99 22 be 16 e5 bb 3f 2f 5f 12 bf
       0.46599862 -0.15878843 1.4679286 -0.5717649
000350 ef ab 1e bf fa 6e 17 be c0 7d 00 3f 4d 25 08 bd
       -0.619811 -0.14788428 0.5019188 -0.033238698
000360 5b f5 bf be c0 ce b9 be 8b af b7 bf e0 85 63 bf
       -0.3749188 -0.3629055 -1.4350446 -0.8887615
000370 8e e3 d2 3d f1 25 dc 3f 1e 53 06 3f 16 ce 35 bf
       0.10297309 1.7199079 0.52470577 -0.7101759
000380 03 79 ef bf 55 2b 21 bf 06 1f f8 3e 73 07 8d bf
       -1.8708805 -0.62956744 0.4846117 -1.1017898
000390 47 62 c7 3d 4f 0f 3a 3f e2 63 30 bf 91 a6 0f 3e
       0.09735542 0.7267961 -0.6890241 0.14028384
0003a0 88 de 52 be 49 eb 49 bf 20 72 ea 3e 20 91 c1 be
       -0.20592701 -0.7887464 0.45790195 -0.37806034
0003b0 bc b0 e6 3e 17 33 b6 be 98 26 96 3e e4 01 e7 be
       0.45056713 -0.35585853 0.2932632 -0.4511863
0003c0 10 09 f9 bf 6e 7a 25 3d 20 53 14 3f 1c 6e fb 3f
       -1.9455891 0.04039996 0.5793934 1.9642978
0003d0 4c c7 bd bf 58 ab c5 3f 6f f9 7e bf ab 6b 39 bf
       -1.4826446 1.5442915 -0.99599355 -0.72429913
0003e0 e4 a0 26 3f 35 0b a8 bf 9c d3 92 bf 79 fb c4 be
       0.6508925 -1.312842 -1.1470828 -0.38473108
0003f0 b1 bd 86 be fc 80 91 3d 19 6f af 3c 64 81 05 3e
       -0.26316598 0.0710468 0.02141528 0.1303764

MatMul f4 [48, 6]
000000 63 fb 53 bd 2e 8d e8 bc a7 dc 2b bf b3 04 84 c0
       -0.051753413 -0.028387632 -0.67133564 -4.1255736
000010 59 6d b2 3f aa 3e fd 3f aa 47 25 bc 57 bc cb 3d
       1.393962 1.9784749 -0.010087887 0.09948032
000020 09 f5 99 be 28 7c 84 3f bd b2 8a bf 13 13 7c bf
       -0.3006976 1.035039 -1.0835797 -0.98466605
000030 c2 f6 c2 bd e4 31 6b bc 29 61 0a be 13 a5 0c 3f
       -0.095197216 -0.014355157 -0.13513626 0.54939383
000040 b4 7e 95 3f d6 ef 4d 3e 2b 19 8c be 2a 4f 8a be
       1.1679292 0.20111021 -0.27362952 -0.27013522
000050 ff 80 fd be 0d dd 05 c0 a4 05 df 3f 90 da 0b 40
       -0.4951248 -2.0916169 1.7423596 2.185215
000060 54 a1 99 bb 6f 73 2c 3d 1c 9f 25 3e 2f 75 a2 3e
       -0.0046884213 0.042102274 0.16173977 0.3173003
000070 a5 e6 44 3f 10 e8 4b 3e 4b 28 aa 3a 5a 82 2a be
       0.76914436 0.19912744 0.0012981979 -0.16651288
000080 6b 4a 3a 3f 4e d3 26 40 d2 9a 59 c0 50 88 1b c0
       0.727698 2.606647 -3.4000745 -2.4301949
000090 fc 01 72 3b 6a bd b0 3a a9 04 2d 3d c9 d0 58 3e
       0.0036927452 0.0013484184 0.042240772 0.21173395
0000a0 ae 81 2c 3f 52 99 ef 3d ab 52 47 bb ab 78 0f bd
       0.67385375 0.116991654 -0.0030414264 -0.035027187
0000b0 6b 31 5e be eb a2 a0 bf cb ab 90 bf 27 4a 55 bf
       -0.21698539 -1.2549719 -1.1302427 -0.8331627
0000c0 42 06 07 3e e0 ba 35 3d 9c f4 05 bf 81 a3 82 bf
       0.13185981 0.04436767 -0.5232637 -1.0206147
0000d0 aa 25 25 3f 52 ec ae 3f a8 03 0a be 14 a1 f4 bd
       0.64510596 1.3665869 -0.13477957 -0.11944786
0000e0 59 b0 35 3f e2 9a b7 bf e9 21 67 3f 9f ff 8c 3f
       0.7097221 -1.4344141 0.9028612 1.1015509
0000f0 89 a0 51 bd 78 da 04 bd a4 5b 23 bd a8 02 6b 3f
       -0.05117849 -0.03243491 -0.039882317 0.9180093
000100 f2 44 df 3f 1f f0 7e 3f 3f e1 99 3c 54 00 8f 3c
       1.7442915 0.99585146 0.018784164 0.017456211
000110 34 93 5e bc 2e fa ae 3e c8 22 a7 3f b4 ea 5d 3f
       -0.013584901 0.34175247 1.3057489 0.86686254
000120 f4 4c e7 bd b4 1e 87 3e c7 93 38 be 94 e2 66 3e
       -0.112939745 0.26390612 -0.18025123 0.2254737
000130 7c 40 c8 be f4 43 8b bd 1c 02 cf 39 a8 99 b6 3c
       -0.39111698 -0.068000704 0.00039483688 0.022290066
000140 95 03 67 3e 33 7e 99 3f 0e 23 58 bf ad 34 a7 bf
       0.2255996 1.1991638 -0.8442849 -1.306295
000150 8d f9 40 3d db 62 73 3d e3 49 cf bd ae cf b9 3e
       0.04711299 0.059420448 -0.10121515 0.3629126
000160 6d de 88 be b1 d3 6f bf 13 86 0b be 78 77 14 3d
       -0.26732197 -0.9368239 -0.13625364 0.036246747
000170 e3 af 15 3f 16 d5 d0 bf 31 09 49 3f e0 1a 0e 3f
       0.58471507 -1.6315029 0.7852965 0.5550976
000180 ca c9 f1 3d 48 56 4b 3d 1b b2 8e be 9c 86 a5 3e
       0.11806066 0.04964283 -0.2787026 0.3232926
000190 42 be 4e bf 38 ce 12 bf 29 19 2f 3c f3 b8 d1 bc
       -0.8075906 -0.57345915 0.010687151 -0.025600886
0001a0 93 3c 61 3e e7 fb aa bf 61 c6 8f 3f 9e 3f 9f 3f
       0.21995763 -1.3358124 1.1232415 1.244129
0001b0 c5 0f c6 bc 04 d8 ef 3c f7 1e aa bd 77 b9 43 3f
       -0.024177441 0.029277809 -0.08306687 0.7645487
0001c0 7b 62 8b 3f 18 0f ae 3f e4 91 a8 bd 0f 9e 06 3e
       1.0889429 1.3598356 -0.082309514 0.13146232
0001d0 0c f4 37 3d 68 f5 2f bd a4 7d 23 3e 87 61 39 3f
       0.044910476 -0.042958647 0.15965897 0.7241444
0001e0 50 c0 09 3f f0 df bc 3d 8d 50 fb be 3c 8a d0 be
       0.5380907 0.092224 -0.49084893 -0.40730464
0001f0 0e 61 3d be 60 79 78 3f f8 2f 84 be cd 59 70 be
       -0.18494055 0.97060204 -0.25817847 -0.23471756
000200 dc 2e 17 bf d1 dc 42 bf f0 5a a6 bf 16 cf 1d c0
       -0.59055877 -0.7611819 -1.2996502 -2.4657645
000210 ea 41 aa bd 18 26 f6 3d 4b af 1c bf f2 c2 85 3e
       -0.08313353 0.120189846 -0.61204976 0.26125294
000220 bb af 85 bf ca 64 86 be db 99 78 bd 92 9e cb 3b
       -1.0444254 -0.2624877 -0.060693603 0.0062139714
000230 46 15 ae 3d 24 35 76 3f 97 60 35 3e ba 5f b5 be
       0.08500151 0.96174836 0.17712627 -0.35424596
000240 f0 70 8e bc 50 02 a2 3c 03 55 88 bd 28 15 80 bf
       -0.017387837 0.019776493 -0.0665684 -1.0006456
000250 2c 64 4e bf 09 56 25 3e db c8 c6 bb ac 0c 2c bd
       -0.806216 0.16146101 -0.0060664243 -0.042004272
000260 3c 0d 4b be ca e0 0f be 41 88 51 3f c9 11 82 3f
       -0.19829267 -0.14050594 0.8184853 1.0161678
000270 40 dd 03 3d 0e eb 0e bc 80 f5 34 bc db e9 51 bf
       0.032193422 -0.008723034 -0.01104486 -0.8199746
000280 2c e1 32 bf a0 bc 0b bf 14 2e 47 be 2d ff d0 3c
       -0.69874835 -0.54584694 -0.19451171 0.025512302
000290 0c 0d 16 3f e2 4f 6e bf 7c 47 1a be 06 3f 8b 3e
       0.5861366 -0.9309064 -0.15066332 0.2719652
0002a0 e6 7d cf 3d 81 57 80 3d d5 cf 0b be 40 f6 8b bf
       0.10131435 0.0626669 -0.136535 -1.0934525
0002b0 e6 81 ad 3e 9b 33 56 be 30 e6 fb bc 53 a0 18 3c
       0.33888167 -0.20918123 -0.03074941 0.009315568
0002c0 6f 54 21 3d 2d 55 f0 3f bb 8a 95 3f d1 88 85 3e
       0.039387163 1.8775994 1.1682962 0.26080945
0002d0 2a 49 84 bb af 3d 1b bc de 5b a4 bc 89 10 d7 3e
       -0.004037042 -0.009475156 -0.020063337 0.42004803
0002e0 96 3f a7 3f a8 46 bc 3f 17 22 8f bc 41 db bb 3d
       1.306628 1.4709063 -0.01747231 0.09172679
0002f0 57 9b 87 be 9e 24 e9 bf cd 0a 18 3e 9d f1 b0 3e
       -0.26485702 -1.82143 0.1484787 0.34559336
000300 09 14 b6 3c d6 3e 0c 3c bb 6d ce 3d 19 aa 9d bf
       0.02222635 0.008559903 0.10079523 -1.2317535
000310 00 88 ca 3e 25 d0 53 3e 58 41 e8 bc d6 08 18 bd
       0.39556885 0.2068487 -0.02835147 -0.0371178
000320 d1 f6 0e 3e 89 c2 9e 3f 06 40 2a bf ca 65 0b 3e
       0.1396134 1.2403117 -0.6650394 0.13613048
000330 10 a1 1c 3d 80 ff aa 3d da 9b 80 bd c3 76 14 be
       0.03823954 0.08349514 -0.06279726 -0.14498429
000340 d5 70 09 bf 4f 01 74 bf e8 0b 94 bc f0 52 af bc
       -0.53687793 -0.95314497 -0.018072084 -0.021401852
000350 e0 4e f7 3d de 32 31 3f 3c 21 d9 bc 3e dd bc 3e
       0.12075591 0.6921824 -0.026505105 0.36887544
000360 c0 48 28 3d fa d7 46 3d df 4a 2d be 6d d2 1e be
       0.041085005 0.048545815 -0.16923092 -0.15509959
000370 ae b6 63 3f f9 53 1b 3f 47 82 5f 3e a6 64 02 3e
       0.8895062 0.6067501 0.2182704 0.12733707
000380 0f e3 80 be 0c eb a6 be 05 01 98 be 97 d5 1a bf
       -0.25173232 -0.32601202 -0.29688278 -0.6048216
000390 e2 b4 aa bb 9c 26 14 3d f2 e5 1a 3e 16 47 2f 3f
       -0.005209551 0.036169633 0.1512678 0.68467844
0003a0 eb 7f 5b bf 96 7c a9 bf 71 41 98 3d bb 28 e5 3d
       -0.8574206 -1.3241146 0.07434357 0.11189409
0003b0 0e 48 58 bc 81 cb 84 bf 59 1e 7b 3f 9f e1 91 3f
       -0.013200773 -1.0374604 0.9809318 1.1396979
0003c0 b9 8c 52 3d 5d f3 d1 bc 1f b2 13 be ad 53 87 bf
       0.051403735 -0.02562874 -0.14423417 -1.0572411
0003d0 e2 d8 9a 3f 95 8b d4 3f 6d 3c 82 3d 1d 1e 76 3d
       1.2097437 1.6605097 0.063591816 0.060087312
0003e0 12 6a 1f be fc c4 8f 3f 1f 7b fe 3e 67 29 44 be
       -0.15567806 1.123199 0.4970331 -0.19156419
0003f0 ba d0 99 bc 70 fc 18 3c 79 88 2d bd 64 e7 6a 3f
       -0.018776286 0.00933753 -0.04236648 0.91759324

Bumper/dense_14/MatMul f4 [22, 12]
000000 ea 9f d9 3d 5f d3 14 bf 9b 36 94 3e 77 b4 b9 3e
       0.10626204 -0.58135027 0.2894791 0.36270496
000010 5a ef b4 be 37 08 99 3c 49 69 83 3f 42 bc 0b 3e
       -0.3533886 0.018680675 1.0266505 0.13646033
000020 25 86 11 3f 77 5f 91 3e 37 13 d1 3e a4 66 b4 be
       0.56845313 0.28393146 0.40834972 -0.3523456
000030 2c 87 ed be fe 2e 31 bd cd e1 c8 3e ca 96 8b 3e
       -0.4639219 -0.043257706 0.39234772 0.2726348
000040 50 f0 6e 3e 1a f5 c8 be 45 0c 98 bf aa fd ff 3e
       0.2333386 -0.39249498 -1.1878744 0.49998218
000050 92 fd a6 be 99 a4 68 3d ef 8f cd 3e 03 7e cd 3d
       -0.32615334 0.056797598 0.40148875 0.100338005
000060 d8 d7 7e be ab 91 05 3f 6c 1e 13 3f e3 38 f7 be
       -0.24887025 0.52175397 0.57468295 -0.4828559
000070 6f 93 a0 3e 87 00 88 3e c5 00 17 3f b6 ab 8c be
       0.31362483 0.26562902 0.5898555 -0.27474755
000080 41 f7 b9 3e 21 66 a9 3e b7 0c 93 3e 87 c8 48 3e
       0.36321452 0.3308573 0.28720638 0.19607745
000090 37 9f 8a 3e 75 eb 52 be b0 4f e5 be 0e 47 b6 3f
       0.27074596 -0.20597632 -0.4478736 1.4240434
0000a0 e9 e8 94 3f 05 8d c4 be 75 8e af 3f b6 3e f3 be
       1.1633579 -0.3838884 1.371535 -0.47508782
0000b0 31 06 27 bd 48 55 67 3e 91 11 29 3f 3a ea 30 bf
       -0.04077739 0.22591126 0.6604243 -0.691074
0000c0 75 4d 9a be dc dd 58 3d 98 9a 9a 3d e1 62 a3 3e
       -0.3013722 0.052945957 0.07549018 0.31911376
0000d0 e6 38 a5 3e 60 62 02 3f f7 5d f4 3e af 63 be be
       0.32269973 0.5093136 0.4772794 -0.37185428
0000e0 21 73 7a 3e f1 a6 91 3e c2 36 d8 3d da 86 02 be
       0.2445798 0.2844768 0.10557319 -0.12746754
0000f0 03 21 dc 3d c3 ec ff 3d 34 c3 ed 3d 94 83 28 bf
       0.10748484 0.124963306 0.11609498 -0.6582577
000100 8d 51 8e 3e 2d 01 3b 3e e6 ba 8b bf 4d 76 a1 be
       0.27796593 0.18262167 -1.0916412 -0.3153557
000110 df 70 ce be 05 ff b1 3c 2d 5d 3b be 45 5a 24 be
       -0.4032049 0.021728048 -0.18297262 -0.1605006
000120 27 9b 73 3e 43 6e ac 3e a3 ab 1b 3e 09 77 ee bc
       0.23789655 0.33677873 0.15202193 -0.029109495
000130 e1 2f b5 3b 07 08 93 be 67 77 7b 3e 0e da 05 bf
       0.0055293893 -0.28717062 0.24557267 -0.5228585
000140 4a ea 86 be 24 30 5a 3e 45 c7 da 3e d9 2d dd be
       -0.26350623 0.21307427 0.42730156 -0.4319904
000150 dd 10 ba 3e 7b 2e 42 3d 31 41 73 3e ab ae f8 3e
       0.3634099 0.04740761 0.23755337 0.4857076
000160 03 88 a1 3e 0e fc 0b bf 99 e1 2c 3f ee 96 19 bf
       0.3154908 -0.5468148 0.67531735 -0.59995925
000170 64 7b 54 3d 5d d6 f4 3e 63 44 84 3e dd 86 07 3f
       0.051875487 0.47819796 0.25833425 0.5294016
000180 26 2a d8 be de 85 ee 3e e5 ba a5 bd 3b 02 9f be
       -0.42219657 0.46586508 -0.08092288 -0.3105639
000190 f2 e9 8a 3e 40 f2 20 3e e8 d1 90 bf cb 70 be bd
       0.2713161 0.15717411 -1.1314058 -0.09298857
0001a0 20 15 07 bf 85 38 b1 3d 0b 32 45 bf 69 2d 18 3f
       -0.5276661 0.08653358 -0.77029485 0.5944429
0001b0 50 e3 e7 3b 16 1e 33 3e bc de b4 bd 64 af a9 be
       0.0070766583 0.17491946 -0.08831546 -0.33141625
0001c0 5d f9 d8 3e 09 29 3b be 53 4a 3d bf 52 84 08 be
       0.4237775 -0.18277372 -0.73941535 -0.13331726
0001d0 d1 f3 a3 be 15 7e cc 3d cd 1b 0b bf 7b 43 11 bd
       -0.32021955 0.09984986 -0.54339296 -0.035464745
0001e0 c8 2e 70 be 11 7d a0 be 4c 7b e4 bb be 99 66 3e
       -0.23455346 -0.31345418 -0.006972706 0.22519585
0001f0 df 75 9d be 6d 04 14 be 4e 23 1d bf 52 d7 24 3f
       -0.3075399 -0.14454813 -0.61381996 0.6439105
000200 99 e6 72 3e d7 f9 02 3f f9 51 d0 3a ba 44 0e 3d
       0.23720779 0.51162475 0.001589357 0.03473351
000210 0f 44 ec bd 31 57 ad 3e 4b 83 04 3f a4 c0 ef bd
       -0.11536419 0.33855584 0.5176284 -0.11706665
000220 b6 4e 22 3f d6 7a b1 3e 19 61 3a 3e 63 8b ea be
       0.63401353 0.3466403 0.18201102 -0.4580947
000230 c9 da 95 3e 6f 89 2b be 50 1f c8 3b e5 c0 10 be
       0.29268482 -0.16751646 0.0061072484 -0.14136083
000240 a1 10 2e 3f 74 ef 7b be 4f be bc bd ea 2b 17 3f
       0.67994124 -0.24603063 -0.09215986 0.5905138
000250 61 86 a9 bc 7c c7 3c 3d 8a 19 5a 3f 53 89 d9 bd
       -0.02069396 0.04608868 0.8519522 -0.10621896
000260 1e 50 20 be f4 1c d7 3d 5b 2d 4a 3e bb b3 01 bf
       -0.15655562 0.10503569 0.19743864 -0.5066487
000270 de 3a 88 be 96 05 0d 3f c9 76 3d be 90 73 1d bf
       -0.26607412 0.5508665 -0.18502344 -0.6150446
000280 a0 85 9c be 61 c5 8f 3e 93 7a b8 bf 1e 00 c7 be
       -0.30570698 0.28080276 -1.4412407 -0.38867277
000290 ac fd 27 bf 7d 59 ad 3e ea d3 0f 3c 77 28 0c 3e
       -0.6562145 0.33857337 0.008778552 0.13687311
0002a0 46 83 83 3d cc 54 bc 3e f8 7a 28 3f 05 18 a2 3e
       0.06421523 0.36783445 0.65812635 0.3165895
0002b0 5d aa 0f 3f f9 09 a2 be 70 fb 12 3f 6b 4a 1f bf
       0.5611933 -0.31648234 0.57414913 -0.6222293
0002c0 73 05 83 be 36 7a 64 be 9d 45 8b be 83 3d d9 bc
       -0.25590095 -0.22312245 -0.27201548 -0.026518589
0002d0 a3 bc d9 3d 7a 6e a4 be 21 44 8f 3e 40 52 0e 3e
       0.10631683 -0.32115537 0.27981666 0.13898563
0002e0 c3 80 a9 3d d8 51 19 3e 1f c3 01 3f 06 4c da bd
       0.082765125 0.14972627 0.50688356 -0.106590316
0002f0 88 65 97 bb 54 26 cc be ed e3 c9 3e da df 82 bd
       -0.0046202578 -0.39872992 0.39431706 -0.063903525
000300 63 51 be 3e f2 e3 d7 3e aa f2 4d be 3b e5 99 3e
       0.37171468 0.42166096 -0.201121 0.300577
000310 1d 69 f8 3e c5 61 18 3f f9 9e db 3e 4b 4b 32 bf
       0.48517695 0.59524184 0.42894724 -0.6964614
000320 4a bd 81 be 73 97 d4 bd 81 dd e2 bb 37 7e 7f be
       -0.2533973 -0.10380449 -0.006923378 -0.24950491
000330 98 7d 79 3e 79 36 1d bf 36 76 ff be 5f e7 75 3d
       0.24364316 -0.61411244 -0.49894875 0.060035106
000340 a9 4f 64 bf 1c 5c db be 64 8d 99 be e4 dc 85 3f
       -0.8918405 -0.4284371 -0.29990685 1.0458035
000350 7c dc d3 be b7 86 2d bf ac 5e 83 be 93 03 4b 3f
       -0.41379154 -0.67783684 -0.25658166 0.7930233
000360 f0 13 e2 3e 1e b5 b2 3b d9 3c a2 3e 39 cf 87 be
       0.44155836 0.0054537198 0.31687048 -0.26525286
000370 35 02 f4 bd 34 e0 9a 3e f2 e7 11 3f 9a f0 79 bc
       -0.119144835 0.30249178 0.56994545 -0.015255118
000380 e3 aa ff 3e 4b 2c 23 3e fa 6c 82 be 61 61 ec be
       0.49935064 0.15934865 -0.25473768 -0.46168044
000390 39 47 9b bd 86 9b 83 bf b7 0c 19 bf 88 5e 2d 3f
       -0.07581944 -1.0281837 -0.59785026 0.6772237
0003a0 cc 2a 7e bf f8 f3 1c bf f2 c9 ef be 54 65 6e 3f
       -0.9928405 -0.61309767 -0.4683376 0.93123364
0003b0 96 ea a5 bd 51 2c ab be 6d 8b b0 3e ec ed 84 3d
       -0.08101384 -0.33432248 0.34481373 0.064906925
0003c0 0d 4e 7b 3e 9c b6 b4 3e a0 0b bd 3e 24 94 89 3e
       0.24541493 0.3529557 0.36922932 0.26870835
0003d0 5b 6d 0d 3f 0e 23 9d 3e 35 1e 74 3f 2e 24 0c bf
       0.5524499 0.30690807 0.9535859 -0.54742706
0003e0 51 e1 ad be 47 70 82 be 4b f7 1b bf e6 47 d3 3d
       -0.33960965 -0.25476286 -0.60924214 0.10316448
0003f0 8b 17 8a 3e d5 d8 02 3f b8 7f b3 3e e8 c6 3a 3d
       0.26971087 0.5111211 0.3505838 0.045599848

Bumper/dense_15/MatMul f4 [18, 22]
000000 83 50 55 3f f4 2c ef be 3f 0c da bc 15 89 fe 3d
       0.83325976 -0.46713984 -0.026617168 0.1242849
000010 86 d4 b5 be aa 7c f4 be 02 92 81 bd 62 8d 18 3f
       -0.35513705 -0.4775136 -0.06326677 0.59590733
000020 62 d1 04 bf ba 66 86 bd 02 bb 83 3e 00 91 07 be
       -0.5188199 -0.06562562 0.25728613 -0.13238907
000030 b4 0f 6a 3e db a0 35 bf a0 68 50 3e 54 53 4c 3e
       0.22857553 -0.7094857 0.20352411 0.19953662
000040 40 3c c0 3d 71 2b f9 3e 3b 4c 43 3f 0b bd 85 3e
       0.09386492 0.48665956 0.76288193 0.2612079
000050 51 65 fa 3e 0e 6e 65 3e 28 1b b5 3b 3f e3 54 3f
       0.48905423 0.22405264 0.005526919 0.8315925
000060 8e cb 8a 3e 97 49 da be 44 a7 c5 be d9 c5 0c 3f
       0.27108425 -0.4263427 -0.38604176 0.5498939
000070 ef 1e 54 bf 37 75 b5 be 11 28 22 3f 86 c4 64 3e
       -0.828597 -0.3544099 0.63342386 0.22340593
000080 40 11 da bc f1 da 78 3d d3 d6 1c bd 5c db 87 3a
       -0.026619554 0.060755674 -0.03829081 0.0010365057
000090 e9 f9 f5 3b 46 0a ac be f9 54 31 bf 7b d7 65 3e
       0.0075065983 -0.33601588 -0.69270283 0.2244548
0000a0 e5 b0 8b 3d 7e 19 73 bd 42 1d 14 3e ba c8 43 3e
       0.06820849 -0.059350483 0.14464286 0.1911954
0000b0 eb c2 0a 3f 9c 3e 80 3e c9 a2 1c be f6 40 f1 3e
       0.5420367 0.25047767 -0.15296473 0.47119874
0000c0 eb 71 54 bd f1 fd 27 be 36 04 8e be 18 a7 e9 bd
       -0.051866453 -0.16405465 -0.27737588 -0.11408824
0000d0 df f8 41 bf 8b c8 0d be 9d 3c 74 3f 42 c7 8a bf
       -0.7577037 -0.13846032 0.9540499 -1.0842059
0000e0 8b b4 26 bd f3 85 83 be ba f0 2e bf 34 97 27 3c
       -0.040699523 -0.25688133 -0.6833607 0.010228921
0000f0 73 46 3b bf da c4 00 3e 4a 86 21 bf 45 66 85 3f
       -0.7315437 0.12575093 -0.63095534 1.0421835
000100 2b 6e 89 bf 8c e2 2d bf 4a 28 34 40 91 d6 90 3e
       -1.0736746 -0.6792381 2.814959 0.282887
000110 06 3e 70 3e d0 57 f3 3e 27 9e fa 3d 45 50 76 bf
       0.2346116 0.47527933 0.122371964 -0.9621623
000120 cc 75 ba 3e c5 df 21 be 0d d3 bb bf 70 f4 f5 bf
       0.36417997 -0.15808018 -1.4673783 -1.9215221
000130 12 9a 1f bd 6a 78 43 3d d0 0f ba 3e e2 36 e3 bf
       -0.038965292 0.047722258 0.3634019 -1.7751124
000140 1b c3 2c bf 78 29 90 3f 06 a5 8f 3e 50 91 9c 3c
       -0.6748521 1.1262655 0.2805559 0.01911226
000150 1d 09 0d be e3 24 a3 3f 4c cc 3d bf ef 64 b5 be
       -0.13773008 1.2745632 -0.7413986 -0.3542857
000160 16 04 51 3f c7 76 9f 3e e9 a5 1f 3e 8e e1 15 3f
       0.8164686 0.31145307 0.15590633 0.58547294
000170 ba 52 04 3e 4c 7b 93 bf 7f ed 5d be f7 7c de 3e
       0.12922183 -1.1522002 -0.21672629 0.43454716
000180 71 f6 8c bf da 86 a9 bf e3 e4 18 3d a2 a3 68 be
       -1.1012708 -1.3244278 0.03732766 -0.22718671
000190 92 dd 2a bd 85 17 72 bf 11 96 ac be 81 6d 59 3f
       -0.041715212 -0.9456714 -0.33708242 0.84932715
0001a0 ee fa bd be 9f ed 26 3f 96 89 ea 3e b7 f2 5c 3f
       -0.37105507 0.6520633 0.45808095 0.86307853
0001b0 80 e7 8f 3e 13 d4 6c 3d af 1d 09 be 55 99 c3 bd
       0.28106308 0.057819437 -0.1339023 -0.0955073
0001c0 aa 25 e5 be 5e de 56 3f 41 56 1a bf e9 9c 92 be
       -0.44755298 0.83933055 -0.60287863 -0.28635338
0001d0 a0 b6 6a be 16 2a c6 be 0d 2c 37 bf 6f 81 87 be
       -0.22921228 -0.38703984 -0.7155159 -0.26465937
0001e0 43 95 35 3e 23 60 22 bf 85 d1 1b 3f 9e 1c f8 be
       0.1773272 -0.63427943 0.60866576 -0.48459333
0001f0 91 17 27 bf 28 31 af bd 18 b0 cb be e8 1c 6c 3f
       -0.65270334 -0.08554298 -0.39782786 0.9223161
000200 a1 4d fe be a7 3f 76 3f dc 3a a2 be 3c 8f 3f bf
       -0.496686 0.96190876 -0.3168553 -0.74827933
000210 92 73 6c 3f bb be 85 3e 0a 8f d0 be 10 f9 92 3f
       0.92363846 0.26122078 -0.4073413 1.1482258
000220 1f c0 67 3e f1 8f 14 be 34 f7 1c 3f 9a a2 5a 3e
       0.22631882 -0.14508034 0.613147 0.2135109
000230 ae 17 9b bf dc c3 fd be 8f 4d 10 bf f5 36 f5 be
       -1.2116601 -0.4956349 -0.56368345 -0.4789349
000240 0b 44 09 3f 8a 35 4b bf ff ab 03 bd 1b d7 27 3f
       0.5361945 -0.7937857 -0.03214645 0.655626
000250 a2 51 9b 3d 4e a7 05 be 90 c4 14 3b 6f 97 63 3f
       0.075839296 -0.13052103 0.0022700168 0.88902944
000260 0f b0 f7 be df cc 07 bf 49 eb 5f 3f 42 c8 12 3f
       -0.4837651 -0.53046983 0.8746839 0.5733682
000270 fb 8d 8a bf 2a 0f eb 3f 19 44 31 3f 36 28 13 bf
       -1.0824579 1.8364003 0.69244534 -0.5748323
000280 13 60 c6 3e fd 91 be be 70 66 af bf d0 fc 16 c0
       0.38745174 -0.37220755 -1.3703136 -2.3591805
000290 86 12 a0 3c 75 0f 82 bf 85 9f dc 3f bb cc cc bf
       0.019540083 -1.0160967 1.7236181 -1.5999979
0002a0 f2 93 8c bf 64 84 d3 3f b2 57 6d 3f 9e 02 84 3f
       -1.0982649 1.6524777 0.9271194 1.0313299
0002b0 49 9d 4e be 68 36 48 40 57 55 8d be 13 65 b3 bf
       -0.20177187 3.1283207 -0.27604172 -1.401522
0002c0 0b d5 0d 3f b5 76 19 3e 44 84 be bd d0 8d 47 3f
       0.554032 0.1498669 -0.093025714 0.77950764
0002d0 30 81 0c bf bc f8 59 be c8 53 6c bf 28 93 fd be
       -0.54884624 -0.21286291 -0.9231534 -0.49526334
0002e0 5d cb 2f bf ee 6f c2 bd ba 57 ed 3e d4 d2 81 bf
       -0.6866968 -0.09494005 0.46355993 -1.0142465
0002f0 7e bb 58 3d 34 2f b5 be af 92 3b bf 5c 7c 9c 3e
       0.05291318 -0.35387576 -0.73270696 0.3056363
000300 ed 5c 41 bf 76 ea 35 3f c8 10 e4 be 99 a5 ae 3f
       -0.7553242 0.71060884 -0.44544053 1.3644286
000310 80 08 92 bf ab c5 03 bf ed 16 de 3c 3d a8 cd 3c
       -1.1408844 -0.5147349 0.027110541 0.025104636
000320 60 dd 38 bf 44 e9 88 bd 3b 20 1b be 4f 71 da 3e
       -0.7221279 -0.06685117 -0.15149014 0.42664573
000330 bc 5b aa be ae da 4e bf 27 e1 97 bd 2a 5d 97 3e
       -0.33273113 -0.8080243 -0.07415991 0.29563266
000340 1f 14 80 3e 74 4b 61 be ce 22 dd 3e d4 dc 05 3f
       0.2501535 -0.2200144 0.43190616 0.5229008
000350 13 f2 e5 be e2 f7 98 bd f1 58 9e 3e 61 c6 7f be
       -0.4491125 -0.07469155 0.30927232 -0.2497802
000360 17 9e 4e 3d a2 40 c1 3c 6d ef 62 bf 5f dd 82 be
       0.050443735 0.02359039 -0.88646585 -0.25559518
000370 c1 8a 8a 3e 2b c1 91 3e d3 cc fd be a1 21 0c 3f
       0.27058986 0.28467688 -0.4957033 0.54738814
000380 fc 77 8b be d0 b8 08 3f fd 68 f5 be 40 a0 32 bf
       -0.27239978 0.53407 -0.47931662 -0.6977577
000390 25 ee 14 3e 3b 84 f7 3c 90 ff 51 3f 47 39 b1 be
       0.1454397 0.03021442 0.8203058 -0.34614012
0003a0 3f 27 81 3e c9 b3 af be 79 55 a9 be e8 18 bb be
       0.25225255 -0.34316853 -0.33073023 -0.3654244
0003b0 64 d6 29 bf 8a aa 5c 3d e3 54 d7 bd 70 28 e3 3e
       -0.6634276 0.053873576 -0.10514238 0.4436679
0003c0 f0 be 00 bf b3 51 a3 be 61 b9 09 3f 4b 69 20 bf
       -0.5029135 -0.3189827 0.5379849 -0.62660664
0003d0 b3 e1 1e 3c 6f ce 2f 3f cf d4 e5 3e 47 82 c2 be
       0.009697366 0.6867437 0.44888923 -0.3799002
0003e0 e0 e6 19 be 96 12 16 3e 96 b7 7b bf cf 2e 17 bf
       -0.15029478 0.14655527 -0.98327005 -0.590558
0003f0 10 66 16 3e cd 71 5e bf 92 f7 38 3f 0e 0c 0b bf
       0.14687371 -0.86892396 0.7225276 -0.5431527

Bumper/dense_16/MatMul f4 [24, 18]
000000 2c 9a 92 3f 73 c2 e5 be ce c9 19 bf cc dc bd 3f
       1.14533 -0.44874915 -0.60073555 1.4833007
000010 38 fb ae 3f bf 30 bb 3d 9d af 80 3f 1f 65 48 3f
       1.3670416 0.09140157 1.0053593 0.782793
000020 fa 9d b2 bc c4 e4 c6 be 1b bc ac be c2 85 a7 3f
       -0.021803845 -0.3884641 -0.33737263 1.3087695
000030 50 9e 51 3f b0 4f 65 3f 48 96 9d be 8c 68 4f bd
       0.8188219 0.8957472 -0.30778718 -0.050636813
000040 67 36 a8 3f c0 d8 19 be df 21 91 be 24 93 64 bd
       1.3141602 -0.1502409 -0.28346154 -0.055804387
000050 14 bd 81 bd de 3e a4 3e b7 d8 04 bc 65 a3 52 be
       -0.06334892 0.32079214 -0.0081083095 -0.20570143
000060 58 f8 a3 be 49 55 e1 3d 8c aa a7 3d 4c 15 dc bd
       -0.3202541 0.11002595 0.08186826 -0.107462496
000070 90 ee 47 be 0e 84 a6 3e c0 db 87 bd 9d 5d 40 3c
       -0.19524598 0.32522625 -0.06633711 0.011741069
000080 0c 2a 85 3e 9b 6a b0 3d 20 7e 76 be 4d 03 f6 bc
       0.26008642 0.086140834 -0.2407155 -0.03003087
000090 09 4c dc be 15 4d 53 3f 60 50 52 3f c9 1d 01 be
       -0.4302676 0.8253949 0.8215389 -0.12609018
0000a0 62 73 b5 be 5c ba 90 3f 0a 40 49 bd a6 08 e8 3e
       -0.35439593 1.1306872 -0.049133338 0.45319098
0000b0 5e 37 7f 3f ba f5 51 3f 29 8f 1e 3f 4d 7d 69 be
       0.9969386 0.82015574 0.61937195 -0.22801705
0000c0 31 41 ef be 9e d0 09 bf 03 e1 96 3f 2e 87 99 3f
       -0.46729425 -0.5383395 1.1787418 1.1994379
0000d0 cc f2 ad 3d 7b 24 9b 3f 38 b5 83 3f 35 69 4b bd
       0.084935755 1.2120508 1.0289679 -0.04966088
0000e0 6b 3a 97 be f4 04 bc 3f f5 da 83 3f a9 8e 9c 3e
       -0.29536757 1.4689012 1.0301195 0.3057759
0000f0 7d 0b a1 3f d2 a8 2a 3f 88 22 4d be 1b c3 08 bf
       1.2581631 0.6666385 -0.20032704 -0.5342271
000100 71 97 cb be df 7a a7 3f 6c 0e 65 3f c6 6e 9d 3f
       -0.39763978 1.3084372 0.8947513 1.229943
000110 81 06 bc be 06 2b 1d be 3f 08 87 3f 15 d0 c9 be
       -0.36723712 -0.15348443 1.0549392 -0.39416566
000120 f4 ae 8e 3e 5e 5a b2 be 9c a9 73 3e 4f dc bf 3d
       0.27867854 -0.3483457 0.2379517 0.093681924
000130 ad 93 f7 3e 83 d5 c8 be 40 24 bf be 93 6c b0 be
       0.48354855 -0.39225397 -0.37332344 -0.34457836
000140 d7 b0 80 3e d9 d8 47 be c7 80 b2 be f2 bc 78 be
       0.25134918 -0.19516315 -0.34863874 -0.24290827
000150 7d 13 41 3e 5a ad 7d be 8f 65 5b 3e 6a 64 33 be
       0.1885509 -0.2477316 0.2142546 -0.17518774
000160 6c e8 a4 3e 54 e3 59 be 03 ce 92 3e 64 0e c5 3d
       0.32208574 -0.21278125 0.286728 0.096218854
000170 5a 86 39 be dc 99 c5 3d 41 05 b2 be 3d 86 70 be
       -0.18117657 0.09648487 -0.34769633 -0.23488708
000180 80 11 97 bc 9a 97 77 be 66 6a 1f 3e 11 9b 0b be
       -0.018440962 -0.24178925 0.15567932 -0.13633372
000190 38 63 79 3d 62 e3 3c 3e c4 1d bc be 48 a4 99 be
       0.060885638 0.18446115 -0.3674146 -0.3000815
0001a0 be 26 bd be 65 a8 4f be a2 23 b6 be 75 5d 9b 3e
       -0.3694362 -0.20279081 -0.3557406 0.3034474
0001b0 95 46 9b 3f 61 9d 2a bf a3 c4 1b bf 8a 09 c4 3f
       1.2130915 -0.6664639 -0.6084692 1.5315411
0001c0 1f a1 94 3f 34 da 39 be d9 db a1 3f b5 f6 7b 3f
       1.161167 -0.18149644 1.2645217 0.9842332
0001d0 71 75 42 3d 3b bb 2b bf 26 1c 69 3d b2 62 97 3f
       0.047475282 -0.67082566 0.05691161 1.1826994
0001e0 b5 8f b8 3f 00 54 58 3f 6e 72 b0 be e1 8a a6 3d
       1.4418856 0.84503174 -0.34462303 0.08131958
0001f0 a6 99 81 3f 10 79 1d be f5 fb f0 be fa 17 70 3f
       1.0125015 -0.15378213 -0.47067228 0.93786585
000200 59 08 7b 3f 50 76 9e be d4 80 33 3e 7e 4f 32 3f
       0.9805961 -0.3094964 0.17529613 0.69652545
000210 5f be da be fb 0f 7a 3f 61 ec 5d 3f a6 ab 90 3f
       -0.42723367 0.97680634 0.8668881 1.1302383
000220 8e 7d de 3e 1d 68 b9 be bb 86 f5 bd 73 99 9c be
       0.43455166 -0.36212245 -0.119885884 -0.30585822
000230 92 a0 52 3f 6b 04 0e 3f db 15 cb be 1a 6c 4b 3f
       0.8227626 0.5547549 -0.39665112 0.79461825
000240 93 22 6e be cb ed 8b 3e 60 8f 0a be ec fb c8 3d
       -0.23255377 0.2732986 -0.13531256 0.09813675
000250 40 c2 cd 3c a6 e6 95 be c5 c2 97 3e 62 0b 94 be
       0.02511704 -0.29277533 0.29640785 -0.28914934
000260 84 14 b6 3d 5d 29 be be 18 53 55 be 54 89 9d 3d
       0.08890632 -0.37140933 -0.20832479 0.07692209
000270 e6 d1 91 be 76 07 5b 3e 22 34 8b be f0 7c b8 3c
       -0.28480452 0.21389565 -0.27188212 0.022520512
000280 58 11 73 bd 10 7e d0 3d 00 03 3a 3f 41 7a 04 bf
       -0.059342712 0.101802945 0.7266083 -0.51749045
000290 6b 04 64 be 04 9b 79 3f cc 3e 79 3f 37 06 12 3e
       -0.2226731 0.9750216 0.97361445 0.14260183
0002a0 5d c8 af 3f 23 42 1f 3f b1 b8 de 3d ef 75 91 be
       1.3733021 0.6221029 0.10875071 -0.2841029
0002b0 24 33 9a be de d6 6a 3f de 2c b6 3f 01 b2 ac 3f
       -0.30117142 0.9173411 1.4232442 1.3491822
0002c0 75 ff e8 be 0f f4 a3 3c 1d f4 97 3f 88 c8 af be
       -0.45507398 0.020013837 1.1871372 -0.3433268
0002d0 20 94 17 bf 8f 4e 81 3f da fb 91 3f 38 6b 16 bf
       -0.59210396 1.0102099 1.1404984 -0.5875735
0002e0 7c 70 4c 3d 72 32 69 3f 5d cc 42 3b 23 b7 30 3f
       0.04991196 0.910926 0.002972386 0.69029444
0002f0 58 f5 9d 3f 4f aa 8c 3f ec e7 a7 3f 24 81 b5 be
       1.2340498 1.0989474 1.3117652 -0.3545009
000300 f6 9b 0d bf 12 f2 c7 be 08 49 91 3f 1b 51 7f 3f
       -0.553161 -0.39051872 1.1350412 0.9973313
000310 2d 7b 86 ba dd bc 94 3f a9 88 0f 3e 8a 38 31 3d
       -0.0010260098 1.1620136 0.14016975 0.04326681
000320 dc 84 ca be db 17 53 be 34 9e 05 3f 04 30 f1 bd
       -0.3955449 -0.20614569 0.52194524 -0.117767364
000330 64 90 0e be 97 ad 4d bf 5d 80 42 3e bc d9 b6 be
       -0.13922268 -0.80343 0.18994279 -0.35712993
000340 cd a0 99 be c9 df b9 3e 88 21 30 3e f3 aa eb 3d
       -0.30005494 0.36303547 0.17200291 0.11507215
000350 40 3d d2 be c6 a8 f5 3c 40 67 15 3d b3 1a e9 bd
       -0.41062355 0.029987704 0.03647542 -0.113820456
000360 2c 11 93 3f 00 8d a6 be 28 03 ac be 8d 96 ac 3f
       1.1489615 -0.3252945 -0.33596158 1.3483444
000370 ae c3 8a 3f ee b8 9d 3e bf 3c 58 3f c9 8d 4b 3f
       1.0840967 0.30805153 0.8446769 0.7951322
000380 b3 42 f0 bd f0 f6 8e be 88 34 33 bf 9e 56 8f 3f
       -0.11731472 -0.27922773 -0.7000203 1.1198308
000390 65 e0 c5 3f d1 fa 8f 3f 75 f4 a2 be 07 d9 46 3e
       1.5459105 1.1248418 -0.3182713 0.19418727
0003a0 b2 7f 83 3f 2c 08 00 bf d9 da 25 bf fa 12 7e 3f
       1.0273345 -0.5001247 -0.6478706 0.99247706
0003b0 aa bf 8c 3f 87 17 bd be 22 0d 0c be 1a 6f 7c 3f
       1.0995991 -0.36932012 -0.13676885 0.9860703
0003c0 80 b9 c9 bb 2b 98 74 3f 9e 2e 8e 3f a8 62 a1 3f
       -0.0061561465 0.9554469 1.1107976 1.2608232
0003d0 ca 62 a1 3f 6b ec c0 be 93 1c fe be 54 cd 21 bf
       1.2608273 -0.37680373 -0.49631175 -0.6320393
0003e0 75 44 65 3f 2f c6 76 3f fa c6 7c 3d ec 0d 51 3f
       0.8955758 0.96396154 0.061713196 0.8166187
0003f0 a5 98 4b bd 95 56 5d 3f 52 ce 4c 3f a4 aa ca be
       -0.04970612 0.8646024 0.8000232 -0.39583313

Bumper/Fx/MatMul f4 [1, 24]
000000 c3 a7 c6 3f c9 2f 10 be 75 5a b0 bf d9 f1 c8 3f
       1.5519947 -0.14080729 -1.3777605 1.5698806
000010 d4 ea 82 bf 98 52 2f 3d 74 92 b1 3f 57 d2 96 bf
       -1.0227914 0.042803377 1.3872819 -1.1782941
000020 4a 82 7e 3e 4a 56 97 3f 93 dd bd bf bc ec 1c bf
       0.24854389 1.1823208 -1.4833244 -0.6129873
000030 9a dc ae 3f 87 6a a3 bf 9c 13 ce bf 78 03 95 3f
       1.3661072 -1.2766885 -1.6099734 1.1641684
000040 1a bd b4 bf 99 40 c2 bf 68 0f c5 bf 11 4b db 3f
       -1.4120209 -1.5175964 -1.5395327 1.7132283
000050 ce 90 cc be c0 e0 ad 3f 30 7d b5 bf 6f 57 a3 bf
       -0.39954227 1.3584213 -1.4178829 -1.2761058

Bumper/dense_17/MatMul f4 [26, 12]
000000 aa 66 07 bd 6b 82 cc 3e 7b ba 53 bf e8 e6 ec bd
       -0.033056892 0.3994325 -0.8270642 -0.11567479
000010 db b3 a2 3e e6 a3 33 40 6e bc 6f be 62 1b 53 bf
       0.31777844 2.8068786 -0.23411724 -0.8246366
000020 3b ae b4 bf 45 54 39 c0 66 fd 22 3e 59 3c ec bf
       -1.4115671 -2.8957684 0.15916976 -1.8455917
000030 f5 26 25 3f d0 e0 fb be 61 33 ac bf 55 e6 45 3f
       0.6451257 -0.49194956 -1.345318 0.77304584
000040 70 a8 05 bf c6 5e 80 3f c9 05 18 be 52 1a cc be
       -0.5221014 1.0028923 -0.14845957 -0.3986383
000050 f0 7e c9 3e 30 ae 26 c0 59 73 47 3e f0 11 d6 bf
       0.39354658 -2.6043816 0.19477595 -1.6724224
000060 b5 d8 8f 3f d2 c4 a8 bf e5 69 59 40 fc 5c 69 3f
       1.1238009 -1.3185065 3.3970883 0.9115751
000070 85 43 16 40 46 d9 c6 c0 ef 07 e7 3f d4 fc 2e 3e
       2.347871 -6.2140226 1.8049296 0.17088634
000080 a0 b1 77 3f 07 2b 65 3f 06 6f 2e 3e 40 55 02 3f
       0.9675541 0.8951878 0.1703454 0.5091133
000090 ca 88 24 3f ba 2e f5 be 4b be 3e bf de 84 98 3e
       0.64271224 -0.47887212 -0.74509114 0.2978887
0000a0 28 db 2a bf c0 45 7c 3f e0 b0 8b be 90 df b3 bd
       -0.66740656 0.9854393 -0.27283382 -0.087828755
0000b0 c0 a6 c9 be ca c6 ca bf e6 cc 0e 3f a6 b8 e0 bf
       -0.39385033 -1.5841916 0.557814 -1.755635
0000c0 36 f8 12 3f 5c 61 14 be b9 6e 94 3f 5d 4f 53 3e
       0.5740999 -0.14490265 1.159629 0.20635743
0000d0 9a ee 5c bf cd b4 62 c0 49 b6 b4 3e b2 85 32 3f
       -0.8630158 -3.5422852 0.35295323 0.6973525
0000e0 12 ab bc 3f b3 20 ef 3f 92 bd 4d 3e ec 72 1a 40
       1.4739707 1.8681854 0.20091847 2.4132643
0000f0 10 95 1a bf 0a 0b 87 3e 9e b7 4d bf a5 43 34 bd
       -0.603837 0.2637561 -0.803583 -0.044009823
000100 db 4b 2a 3f d9 90 5c 40 d3 7a f2 be d4 a0 ff be
       0.66521996 3.4463408 -0.47359332 -0.4992739
000110 0e dd c9 bf cd 24 2f c0 6f 94 39 bd c9 0e 0b c0
       -1.5770586 -2.7366211 -0.045307573 -2.1727774
000120 14 7f 07 bf 67 94 1b bd 8e 19 5d bf 87 e0 21 bf
       -0.5292828 -0.037983324 -0.8636712 -0.63233227
000130 fb 5e 71 3f 25 f4 72 40 54 16 3a bf 35 87 33 bf
       0.94285554 3.7961514 -0.7269032 -0.70128185
000140 df 0f 03 c0 89 46 34 c0 23 5c a0 bd 86 72 24 c0
       -2.0478437 -2.8168051 -0.07830074 -2.56949
000150 d7 2f 08 3f 8d 49 88 be 2a 5e b2 3f 44 d4 46 3e
       0.53198 -0.26618615 1.3934987 0.1941691
000160 22 2b 01 bf 90 19 6e c0 82 b4 19 3f 04 db 88 3f
       -0.5045644 -3.7203102 0.6004106 1.0691838
000170 89 c9 09 40 cc 89 e5 3f 21 02 af 3e 71 1b 48 40
       2.1529257 1.7932677 0.34181312 3.126675
000180 ce 63 f3 3c aa 07 bb be dc 56 ad 3e ff 54 31 be
       0.029710677 -0.36529285 0.3385533 -0.1731758
000190 4a 4b 2a be ac 3a 1d c0 e9 75 a2 3c 3b 9f 53 3f
       -0.16630283 -2.456706 0.019831615 0.8266484
0001a0 a8 43 05 3f d8 d6 de 3f dc a5 25 3e f1 79 ce 3f
       0.5205636 1.7409315 0.16176552 1.6130964
0001b0 6c 24 2b bf 6b 01 84 3e 34 ff 89 bf 55 0e 8f be
       -0.6685245 0.25782332 -1.0781007 -0.27940622
0001c0 12 ba 67 3f 3e 17 3f 40 f2 9e 1a 3c f6 38 04 bf
       0.90518296 2.9857936 0.00943731 -0.51649415
0001d0 6c 05 96 bf 91 d4 18 c0 c8 2d 06 3d ab a0 ff bf
       -1.1720405 -2.387974 0.032758504 -1.9970907
0001e0 5f 4b af 3e 6b f0 d6 bd 47 02 30 bf cf d2 e9 3d
       0.3423719 -0.10495075 -0.68753475 0.11417162
0001f0 b4 75 1f bd a4 86 c0 3f b8 ea 8a 3e cc 8e 3e 3e
       -0.03893061 1.5041089 0.271322 0.1860916
000200 ac ee 49 bf 0f 7a 01 c0 1b 7b a8 3e 9c c9 b8 bf
       -0.7887981 -2.0230749 0.32906422 -1.4436526
000210 2b 7e b3 be 9c 01 bc 3e 1a 56 78 bf 64 2c a4 3e
       -0.35057196 0.36719978 -0.9700638 0.32065117
000220 8f 38 29 3f 3f e9 35 40 38 4e 08 3f 6a 57 1e bf
       0.66101927 2.8423612 0.5324435 -0.61852133
000230 85 0b da bf 8e 0b 1c c0 1c cd ef 3e 8b d6 68 bf
       -1.7034765 -2.4382052 0.46836174 -0.90952367
000240 67 ce 66 be 0c 15 87 3d 7c 8c 08 bf 86 9e 99 be
       -0.22539674 0.06595811 -0.5333936 -0.30003756
000250 14 8a 24 3f 8b 4a 50 40 a2 ec bb be 7b 3a 1e bf
       0.6427319 3.2545497 -0.36703974 -0.61807984
000260 40 4a dd bf 4e 10 4f c0 da ac a6 3e b7 db d0 bf
       -1.7288284 -3.2353702 0.3255375 -1.6317052
000270 e7 3b 85 3e 59 b8 26 be 07 b0 52 3f 6c 45 31 3e
       0.26022264 -0.1628126 0.82299846 0.17311639
000280 f2 d9 b7 be ae 11 2f c0 a5 97 34 3f 85 7e 21 3f
       -0.35908467 -2.735454 0.7054389 0.6308368
000290 4a aa c1 3f 66 80 07 3f 0d e6 0d 3f ae 15 44 40
       1.5130093 0.52930295 0.55429155 3.0638232
0002a0 54 bd f5 3e 5c 69 d8 be ce 10 de be f7 47 08 3f
       0.47996008 -0.42267883 -0.43372196 0.5323481
0002b0 61 07 bd bd 39 73 f9 3f 9b a2 1d be ab d1 f3 3d
       -0.09229923 1.9488288 -0.1539406 0.11905225
0002c0 99 b7 5f be fb 8b 0e c0 8a d6 13 3f 55 5d d7 bf
       -0.2184738 -2.2272937 0.57749236 -1.6825358
0002d0 3e e4 e3 3e 08 41 5c bd cf d3 97 bf 9c c9 84 3f
       0.44510072 -0.053772956 -1.1861514 1.0374026
0002e0 b2 c1 32 3e 4a d3 d4 3f 4c 14 14 3e c7 c1 89 be
       0.17456701 1.662698 0.14460868 -0.26905653
0002f0 5a 46 c2 bd f4 31 bf bf d5 e0 8f 3e de f0 9b bf
       -0.09486075 -1.493712 0.2810122 -1.2182882
000300 e1 a5 b3 bd 1f ce fd bd ba 51 d1 bd 6c 1f 52 3e
       -0.08771873 -0.1239283 -0.10220666 0.20519799
000310 4a 5c 06 bd 90 d5 00 c0 56 7e 1b 3f eb 1e cd 3e
       -0.032802857 -2.0130348 0.6073965 0.4006265
000320 a9 65 f0 3e 39 2f 3b 3f c9 db b5 3e 2c 77 03 40
       0.4695256 0.7311893 0.35519245 2.0541487
000330 9e 62 cd bd 03 2c bb 3e d1 fe 8a bf 9a d4 a3 bd
       -0.10028575 0.36557016 -1.0859014 -0.07999535
000340 e3 4e 15 3f b3 25 49 40 e9 e7 ee be 00 03 81 bf
       0.58323497 3.142926 -0.46661308 -1.007904
000350 e0 5c d6 bf 65 6a 26 c0 11 45 83 be ec 22 1a c0
       -1.6747093 -2.6002438 -0.2563863 -2.4083815
000360 d8 55 0f 3f a1 ae 90 be e9 b8 5b 3f c6 7d c3 be
       0.5599036 -0.2825823 0.85829026 -0.38181895
000370 7a 71 40 bf 53 82 57 c0 55 cb 32 be d0 12 80 3e
       -0.7517315 -3.3673294 -0.17460378 0.25014353
000380 8e c2 ce 3f dc 98 30 40 26 95 e6 be 96 dc a3 3f
       1.6153123 2.7593298 -0.45035666 1.2801692
000390 4a 49 8d 3d b9 d8 f2 3e 8e 35 94 bf 09 e6 a2 3e
       0.068987444 0.4743097 -1.1578844 0.31816128
0003a0 87 82 1c 3f a7 0b e9 3f ba 36 7c 3e b6 65 fd be
       0.6113667 1.8206681 0.24630252 -0.49491662
0003b0 48 23 c0 be d9 33 15 c0 65 69 56 3e ef 4e 33 bf
       -0.37526917 -2.3312895 0.20938642 -0.7004232
0003c0 8e 22 5e 3e 70 25 29 3e 8f e4 62 bf 61 b7 68 3e
       0.21692869 0.16518188 -0.8863 0.22726204
0003d0 5e b9 25 3f 97 8a f5 3f 41 f1 76 3f 5a 68 9c be
       0.6473597 1.9182919 0.96461874 -0.30548364
0003e0 51 aa 30 bf df fe ee bf da ac 24 3e 6c b7 35 bf
       -0.6900988 -1.867153 0.16081563 -0.70983005
0003f0 9b e8 90 bb 49 20 39 bf dd 34 a2 3f 41 99 a0 be
       -0.00442226 -0.7231489 1.2672383 -0.31366923
